new_custom.tflite (tflite, 750924 bytes, 16 tensors)

sequential_2/conv2d/Relu;sequential_2/conv2d/BiasAdd;sequential_2/conv2d/Conv2D;sequential_2/conv2d/BiasAdd/ReadVariableOp f4 [32, 3, 3, 3]
-0.00015236344 -0.0003331927 0.00046361206 -5.3042157e-05 -0.0005532268 -0.00014416302 0.0001551535 -0.00051997503
0.00054951117 -3.151698e-05 0.0001950649 0.00033676735 7.593067e-05 -8.62294e-05 0.00055733783 -0.00048393462
-0.0007682191 0.00010028651 -0.0005103723 0.00015701362 0.00048291194 0.0004633221 5.7348803e-05 0.00066835346
-0.0003939817 -0.00037650202 0.0006035557 -7.669578e-05 -0.0003142371 -0.00028733342 2.1656624e-05 -0.00022124601
0.00079572573 -0.0003367269 -0.0002966887 -0.00031930002 -0.00022322977 0.00014937503 0.00072860316 -0.0003613971
-2.6366845e-06 0.0005397773 -0.00023970527 -0.00040863457 0.00071967836 -0.0002811977 -0.00043609066 0.0007388971
0.00041421485 -0.00025323805 0.00072607957 -8.0592734e-05 -8.951649e-05 0.0007865289 -0.00018589439 -0.00037747098
0.0001796853 0.00037187955 -0.00051739055 0.00042375608 -5.3618558e-05 -0.00015318612 -0.00032143734 -0.00014834685
-0.00016505914 -0.0003267195 0.0003161997 -0.00048823268 -0.00038908614 0.00016782203 -0.000116396644 0.00014320524
-0.00037482422 -0.00057509483 -0.00022005512 -0.00057297957 -0.0006488602 -7.230789e-05 -0.0006146015 0.0002016541
-0.0004985885 -0.00055565004 -0.00016078561 -0.00061832863 -0.00029374912 0.00016090169 -0.00092137954 -0.00065794913
0.00029234317 -0.00026830914 -0.00037862483 -0.0006326979 -0.00067913 -0.0004756354 -0.00036194443 -0.00053036003
-0.00019359935 -0.00044000932 0.000423761 -0.00018652678 0.0003624204 0.00039527495 0.00048089316 -0.00012010589
0.0005135074 0.00018988602 0.00046186656 0.0006069546 -0.00015335344 7.247499e-05 -0.0002261055 -0.000587287
-0.0003057496 -0.00029080696 -0.00045050605 0.00034507073 -7.1874485e-05 2.342305e-05 -0.00039913107 -0.00012347756
-0.00070519856 -6.871835e-05 -0.00023092008 -1.8233824e-05 0.00023956923 -0.00020506092 8.923033e-05 0.00041103494
3.433192e-05 -0.0004972613 -0.00043938984 0.00028092714 -0.0002755916 5.9261685e-05 -7.4419804e-05 0.0008151736
0.00015410497 -0.00034569085 -0.00017492501 -0.00019975663 -2.111732e-05 0.00029182844 -0.0004340651 -0.00036205078
0.00064297667 -0.0006284717 0.0001614311 0.00055380206 -0.0005016664 0.00013086696 0.00078220206 -0.0004012927
-0.00040240298 3.8901617e-05 0.00026408743 -0.00018855961 0.0003987521 -0.00041266243 -7.358185e-05 0.00027359722
-0.00051139836 -8.463036e-06 -0.0006878926 0.00018273431 -0.0003350436 -0.0001252109 -0.00017654338 -0.00043457947
-5.742439e-05 9.217883e-05 -0.0006675555 0.00012448152 -0.00016559516 0.00030143457 0.00015321432 -0.0007028574
-0.00016142376 -4.002025e-05 -0.0006783297 0.0002056321 0.00033234173 -0.0001724816 0.00034242205 -0.0004351275
-3.0524046e-05 0.00012903727 0.00024277094 -0.00056414073 -0.0005648865 0.00030354396 -0.00018462942 -0.00052049995
0.00052798487 0.0005359767 -0.0001381502 0.00027723075 -9.986838e-05 7.939564e-05 0.00031353044 0.00015903852
-0.00055357616 -0.00012884615 -0.00025329058 0.00010320996 -0.00042452826 0.0004701157 -0.00097348756 -0.000103816965
0.0005848088 -0.0002913464 -0.00040647562 0.00042011225 -0.00092447083 0.00056576886 9.180717e-05 -0.0009828232
-9.2292416e-05 -0.0004058769 -0.00041307817 -0.0005647305 -8.105446e-06 -0.00064964127 -0.0007610878 2.5666895e-05
-0.0003603654 7.233378e-05 0.0003139872 -0.00036149813 -1.8069577e-05 -0.00062055397 9.796499e-05 0.00025868905
-0.00042810067 9.253326e-06 -0.00011189174 -0.0006012768 0.00027360843 -3.4468794e-05 -0.00027297658 0.00051709765
0.00024029138 0.0005489394 0.0006441907 -0.00045378192 -0.00047049113 0.0001987394 -0.0005273139 -0.0001601123
-0.0002346198 -5.2431146e-06 -0.00025892296 0.00022115915 -5.0240007e-05 -0.000405479 0.00026738344 -0.00051666924
00000000: c0c3 1fb9 5eb0 aeb9 f510 f339 9579 5eb8
00000010: 6c06 11ba 772a 17b9 b3b0 2239 ef4e 08ba
00000020: 120d 103a 1931 04b8 568a 4c39 2690 b039
00000030: f83c 9f38 0ed6 b4b8 4f1a 123a 9bb8 fdb9
00000040: 5062 49ba e950 d238 81ca 05ba 06a4 2439
00000050: 582f fd39 0aea f239 cf89 7038 7134 2f3a
00000060: 548f ceb9 3f65 c5b9 f037 1e3a bcd7 a0b8
00000070: 31c0 a4b9 3da5 96b9 3fab b537 46fe 67b9
00000080: 4098 503a b88a b0b9 e28c 9bb9 b967 a7b9
00000090: c912 6ab9 8ea1 1c39 bbff 3e3a e679 bdb9
000000a0: e5f1 30b6 d77f 0d3a 6559 7bb9 013e d6b9
000000b0: cca8 3c3a b76d 93b9 19a3 e4b9 8cb2 413a
000000c0: fa2a d939 09c5 84b9 6056 3e3a e503 a9b8
000000d0: cdba bbb8 102f 4e3a a5ec 42b9 4ce7 c5b9
000000e0: e869 3c39 d4f8 c239 7ea1 07ba 942b de39
000000f0: 7de4 60b8 96a0 20b9 9786 a8b9 8e8d 1bb9
00000100: ba13 2db9 8d4b abb9 9bc7 a539 7bf9 ffb9
00000110: 42fe cbb9 62f9 2f39 f919 f4b8 5d29 1639
00000120: 0e84 c4b9 f6c1 16ba 99be 66b9 0234 16ba
00000130: 4518 2aba 01a4 97b8 351d 21ba 1c73 5339
00000140: b5b3 02ba 0ba9 11ba 8f98 28b9 5517 22ba
00000150: 5702 9ab9 b8b7 2839 bc88 71ba 387a 2cba
00000160: a345 9939 d8ab 8cb9 2a82 c6b9 a3db 25ba
00000170: a507 32ba b45e f9b9 5cc3 bdb9 dc07 0bba
00000180: ee00 4bb9 0db1 e6b9 3d2c de39 6796 43b9
00000190: 3e03 be39 e83c cf39 6320 fc39 5ce1 fbb8
000001a0: e69c 063a 241c 4739 ae26 f239 091c 1f3a
000001b0: 80cd 20b9 b7fd 9738 bc16 6db9 2af4 19ba
000001c0: 044d a0b9 7377 98b9 e631 ecb9 9cea b439
000001d0: 52bb 96b8 9e7c c437 7742 d1b9 c179 01b9
000001e0: 13dd 38ba e21c 90b8 2323 72b9 d7f4 98b7
000001f0: e034 7b39 9f05 57b9 2b21 bb38 2d80 d739
00000200: 9eff 0f38 a45a 02ba e85d e6b9 6749 9339
00000210: 477d 90b9 c08f 7838 d411 9cb8 60b1 553a
00000220: 3d97 2139 d73d b5b9 136c 37b9 c375 51b9
00000230: 1925 b1b7 8d00 9939 3b93 e3b9 a2d1 bdb9
00000240: 6f8d 283a 06c0 24ba d545 2939 072d 113a
00000250: 4382 03ba 5539 0939 b10c 4d3a 9864 d2b9
00000260: 9df9 d2b9 4b2a 2338 3775 8a39 16b8 45b9
00000270: 9a0f d139 9d5a d8b9 f44f 9ab8 9971 8f39
00000280: 5d0f 06ba 76fc 0db7 b153 34ba 5e9c 3f39
00000290: caa8 afb9 0c4b 03b9 811e 39b9 45d8 e3b9
000002a0: f8da 70b8 2250 c138 e4fe 2eba 4187 0239
000002b0: 9da3 2db9 dd09 9e39 28a8 2039 f63f 38ba
000002c0: dc43 29b9 6bdb 27b8 f0d1 31ba f29e 5739
000002d0: 273e ae39 2ddc 34b9 1c87 b339 d321 e4b9
000002e0: f206 00b8 2e4e 0739 5490 7e39 d8e2 13ba
000002f0: e414 14ba fb24 9f39 1599 41b9 2972 08ba
00000300: 7768 0a3a ca80 0c3a 69dc 10b9 4859 9139
00000310: 6e70 d1b8 3681 a638 5861 a439 94c3 2639
00000320: de1d 11ba e01a 07b9 16cc 84b9 6d72 d838
00000330: 3893 deb9 dc79 f639 a531 7fba 4fb8 d9b8
00000340: db4d 193a dabf 98b9 3c1c d5b9 8342 dc39
00000350: 3058 72ba 1b50 143a 9988 c038 13d2 80ba
00000360: 1d8d c1b8 e0cb d4b9 6a92 d8b9 6c0a 14ba
00000370: a0fc 07b7 b04c 2aba bd83 47ba 3d4f d737
00000380: 6def bcb9 e7b1 9738 a69e a439 7587 bdb9
00000390: 1f94 97b7 acac 22ba 8e72 cd38 a8a0 8739
000003a0: b372 e0b9 bc3e 1b37 6ca7 eab8 019f 1dba
000003b0: 1a73 8f39 9692 10b8 4c1e 8fb9 d68d 073a
000003c0: baf6 7b39 b3e6 0f3a e8de 283a 94e9 edb9
000003d0: 40ac f6b9 b464 5039 703b 0aba d1e3 27b9
000003e0: 4604 76b9 03ee afb6 0dc0 87b9 f5e6 6739
000003f0: ccb8 52b8 7896 d4b9 992f 8c39 1671 07ba

sequential_2/conv2d/BiasAdd/ReadVariableOp f4 [32]
-0.044464726 -0.018819388 -0.03373885 -0.008722675 0.13727085 0.06772527 -0.043726288 -0.060759213
-0.0019821944 -0.004929833 -0.0722102 -0.017257802 -0.009598721 -0.06878673 0.02019948 0.06899419
0.013394731 -0.02585816 -0.0048222262 0.05174237 0.052981064 -0.09145638 -0.19444141 -0.017649982
-0.014195008 -0.022506548 -0.012545875 -0.023642426 0.043946393 0.07429821 -0.024885789 -0.028355142
00000000: a520 36bd 1e2b 9abc c031 0abd 8de9 0ebc
00000010: bb90 0c3e 8cb3 8a3d 561a 33bd a7de 78bd
00000020: b4e7 01bb 708a a1bb f1e2 93bd 3c60 8dbc
00000030: f443 1dbc 0fe0 8cbd 6179 a53c d34c 8d3d
00000040: 9375 5b3c 7ed4 d3bc c403 9ebb cfef 533d
00000050: ac02 593d 7c4d bbbd a61b 47be b296 90bc
00000060: 2e92 68bc a75f b8bc 378d 4dbc c3ad c1bc
00000070: 2201 343d a929 983d 48dd cbbc 0b49 e8bc

sequential_2/conv2d_1/BiasAdd/ReadVariableOp f4 [64]
-0.032681044 -0.030853635 -0.036057528 -0.053844783 -0.005211669 0.005388676 -0.03977039 -0.14861287
-0.04538613 -0.0098088235 -0.030325918 -0.03945629 -0.056788474 -0.03663933 -0.033824243 -0.045456726
-0.03668701 -0.052946553 0.021653483 -0.03607816 -0.03951392 0.03228867 -0.0685627 -0.054255385
-0.055576075 -0.032051858 -0.10258277 0.014533659 -0.07575662 -0.098288715 -0.030635467 -0.022927754
-0.11799561 -0.059062373 0.014585477 0.05163077 -0.035002824 -0.033467714 -0.030395301 -0.0038233644
-0.09845844 -0.06324036 -0.058618367 -0.05112255 -0.07510599 -0.037640866 -0.085396595 -0.04481245
-0.041166484 -0.003168345 -0.03984426 -0.03714818 -0.023826273 -0.028532632 -0.05159594 0.037992947
-0.04091488 -0.04192965 -0.019399414 -0.08820752 0.08255401 -0.07236923 -0.0629953 -0.04738149
00000000: 8fdc 05bd c3c0 fcbc 0fb1 13bd 598c 5cbd
00000010: a6c6 aabb 7e93 b03b 47e6 22bd f92d 18be
00000020: cfe6 39bd 30b5 20bc 0f6e f8bc eb9c 21bd
00000030: 089b 68bd 1f13 16bd 4a8b 0abd d530 3abd
00000040: 1e45 16bd 7cde 58bd a562 b13c b1c6 13bd
00000050: 59d9 21bd 2041 043d 9a6a 8cbd e53a 5ebd
00000060: bda3 63bd cf48 03bd ea16 d2bd 961e 6e3c
00000070: 4926 9bbd 984b c9bd 3bf7 fabc fcd2 bbbc
00000080: afa7 f1bd 63eb 71bd edf7 6e3c c97a 533d
00000090: 1f5f 0fbd 7115 09bd 91ff f8bc 6991 7abb
000000a0: 94a4 c9bd 2984 81bd d019 70bd e165 51bd
000000b0: 2bd1 99bd 4f2d 1abd 69e4 aebd 428d 37bd
000000c0: 309e 28bd 02a4 4fbb bc33 23bd b128 18bd
000000d0: 512f c3bc 44bd e9bc 4456 53bd 7e9e 1b3d
000000e0: 5c96 27bd 6dbe 2bbd 85eb 9ebc 25a6 b4bd
000000f0: 1412 a93d 5236 94bd ae03 81bd 1813 42bd

sequential_2/conv2d_2/BiasAdd/ReadVariableOp f4 [64]
-0.1014036 0.117587656 -0.07169095 0.010085002 -0.07826923 0.05152694 -0.13644382 -0.03199802
-0.05677485 -0.15952206 -0.02384307 -0.034577508 -0.037970874 -0.047833823 -0.04437536 -0.052140664
-0.12130318 0.027121944 -0.013630049 -0.066002 -0.12390725 -0.105328426 -0.10636273 -0.055801783
-0.026992355 -0.033825457 0.0055600763 -0.01995797 -0.009536755 -0.063283615 -0.019617755 -0.07869799
-0.036370397 -0.07446359 -0.0695274 -0.032306675 -0.050523344 -0.041735675 0.041341044 0.05877153
-0.145004 -0.019633487 -0.03843681 -0.010976579 0.035411365 -0.00097454246 -0.035691947 -0.014158674
-0.021861158 -0.049454592 -0.047760427 0.03279706 -0.062357727 0.0016794858 -0.16198367 -0.046999805
-0.03138622 -0.08467427 -0.026508467 0.02565187 -0.051138982 -0.014092358 -0.06224693 -0.07102539
00000000: b1ac cfbd ccd1 f03d b4d2 92bd 903b 253c
00000010: 9e4b a0bd ea0d 533d eeb7 0bbe 5b10 03bd
00000020: bf8c 68bd c059 23be 8b52 c3bc 25a1 0dbd
00000030: 5987 1bbd 66ed 43bd f0c2 35bd 7391 55bd
00000040: cd6d f8bd d72e de3c 9250 5fbc 0e2c 87bd
00000050: 16c3 fdbd 6eb6 d7bd b4d4 d9bd 6990 64bd
00000060: 121f ddbc 908c 0abd 4d31 b63b e67e a3bc
00000070: 0d40 1cbc d79a 81bd 6ab5 a0bc 692c a1bd
00000080: 20f9 14bd 5e80 98bd 6264 8ebd 0154 04bd
00000090: 91f1 4ebd 07f3 2abd 3a55 293d 6aba 703d
000000a0: ee7b 14be 68d6 a0bc eb6f 1dbd 1cd7 33bc
000000b0: 820b 113d 7078 7fba b831 12bd c8f9 67bc
000000c0: 2c16 b3bc e690 4abd 70a0 43bd 3656 063d
000000d0: d16a 7fbd 3122 dc3a 0cdf 25be de82 40bd
000000e0: d68e 00bd b469 adbd 4928 d9bc df23 d23c
000000f0: 1c77 51bd a2e3 66bc a3f6 7ebd c275 91bd

sequential_2/conv2d_3/BiasAdd/ReadVariableOp f4 [64]
-0.0776948 -0.06857383 -0.07182614 -0.02860318 -0.028395973 -0.023594933 -0.069849275 -0.028584868
-0.041292407 -0.06538827 -0.017194714 -0.17176612 -0.03878115 -0.04277119 -0.121571906 0.10462342
-0.06106083 -0.043182574 -0.0465762 -0.01714103 -0.026771227 -0.034386568 0.06291537 -0.05880709
-0.09547169 -0.023980074 -0.06498406 -0.2275549 -0.03713798 -0.031183004 -0.033740804 0.124667555
-0.03613466 -0.033690583 -0.0345645 -0.049927227 -0.035902753 -0.05230276 -0.024701618 -0.032609683
-0.16427794 -0.054381426 -0.006094471 -0.07540101 -0.021706063 -0.03956655 -0.060292706 -0.09081894
0.014401081 0.0005195396 -0.12161564 -0.031744786 -0.061728477 -0.017654698 -0.11845782 -0.0438506
-0.07095081 -0.18348874 -0.08493109 -0.020519527 -0.042889632 -0.020616421 -0.04213633 -0.008452183
00000000: 741e 9fbd 7070 8cbd 9519 93bd 3751 eabc
00000010: ac9e e8bc 294a c1bc 230d 8fbd d02a eabc
00000020: 3a22 29bd 49ea 85bd eedb 8cbc 75e3 2fbe
00000030: fcd8 1ebd d830 2fbd b1fa f8bd ce44 d63d
00000040: ec1a 7abd 36e0 30bd afc6 3ebd 586b 8cbc
00000050: 554f dbbc eed8 0cbd c6d9 803d b4df 70bd
00000060: a986 c3bd dc71 c4bc 5d16 85bd 2704 69be
00000070: ff1d 18bd 8073 ffbc cc33 0abd b451 ff3d
00000080: f001 14bd 23ff 09bd 8193 0dbd 7e80 4cbd
00000090: c40e 13bd 6b3b 56bd 0c5b cabc bb91 05bd
000000a0: 7a38 28be 0fbf 5ebd 21b4 c7bb d86b 9abd
000000b0: ead0 b1bc 8910 22bd 7cf5 76bd 48ff b9bd
000000c0: 83f2 6b3c b631 083a 9f11 f9bd d206 02bd
000000d0: 00d7 7cbd 96a0 90bc 039a f2bd b09c 33bd
000000e0: a94e 91bd 79e4 3bbe 5af0 adbd 9118 a8bc
000000f0: 0aad 2fbd c5e3 a8bc 2597 2cbd 067b 0abc

sequential_2/conv2d_4/BiasAdd/ReadVariableOp f4 [64]
-0.032337382 -0.040462393 -0.029746814 -0.037505735 0.11247623 0.25072864 -0.023180753 0.09588517
0.17321363 -0.05607987 -0.068038076 0.07053961 0.00060074514 0.031090155 -0.060667053 -0.108654335
-0.1301411 -0.094518006 -0.19277333 -0.110827014 0.07485937 -0.014633697 0.017955698 -0.19864035
-0.037080597 -0.18823135 -0.020038696 0.20754094 -0.022170704 -0.099287786 -0.2099621 -0.03126775
-0.1626794 -0.05523803 0.04400407 -0.17585155 -0.0494786 -0.09315909 0.26698762 -0.28383306
-0.054612234 0.22754222 -0.087531544 -0.019101284 0.05356231 -0.20624979 -0.3819746 -0.11735006
-0.17518133 -0.053041056 -0.05226476 0.15653257 -0.0797615 -0.12327105 -0.031285815 0.011090155
-0.13938591 -0.08643524 -0.041322496 -0.07638416 0.25146347 -0.034742657 0.10761764 0.12798293
00000000: 3474 04bd e5bb 25bd 97af f3bc 9d9f 19bd
00000010: f059 e63d 815f 803e 90e5 bdbc 725f c43d
00000020: ea5e 313e 01b4 65bd 8c57 8bbd 1277 903d
00000030: 537b 1d3a c8b0 fe3c 047e 78bd 2a86 debd
00000040: b543 05be a892 c1bd 5f66 45be 46f9 e2bd
00000050: df4f 993d 2dc2 6fbc d417 933c 6068 4bbe
00000060: d3e1 17bd b8bf 40be 3128 a4bc 9d85 543e
00000070: 569f b5bc 6557 cbbd 4e00 57be 9d12 00bd
00000080: 6e95 26be 4641 62bd 9d3d 343d 6e12 34be
00000090: 13aa 4abd 31ca bebd 9ab2 883e 9152 91be
000000a0: 14b1 5fbd d400 693e bd43 b3bd 4c7a 9cbc
000000b0: 2764 5b3d 2533 53be 2d92 c3be 3a55 f0bd
000000c0: bc62 33be 9441 59bd 9313 56bd 134a 203e
000000d0: ff59 a3bd 8875 fcbd 8e25 00bd 7bb3 353c
000000e0: 2ebb 0ebe f604 b1bd c741 29bd 4c6f 9cbd
000000f0: d2bf 803e 514e 0ebd a366 dc3d f50d 033e

sequential_2/conv2d_5/BiasAdd/ReadVariableOp f4 [64]
-0.01953259 0.2331946 0.23232318 -0.015680807 -0.015914185 -0.036022022 0.03594506 0.26865453
-0.02046519 -0.022345932 -0.05925022 0.12209789 0.36951503 -0.029260004 -0.18647422 -0.14712073
-0.098709084 -0.19903165 -0.03209089 0.03199825 0.22783874 -0.08413694 -0.024968551 -0.023373285
-0.005524206 -0.03052433 -0.0316066 0.15791622 -0.18529435 0.20673792 -0.032826602 0.021703903
-0.0895322 -0.01838595 -0.048047516 -0.014993479 -0.015782842 -0.0436599 -0.014840682 -0.011420361
-0.13383082 0.028786335 -0.035935655 0.08435204 -0.015102375 -0.042551585 0.11948363 -0.014861312
0.009568438 -0.0897477 -0.19538343 0.011152352 -0.028187916 -0.030544158 -0.039985504 0.06330185
0.23578897 -0.11973188 0.13725513 -9.355838e-05 0.041673623 -0.019584944 0.18843909 -0.022391498
00000000: cf02 a0bc 91ca 6e3e 21e6 6d3e 0975 80bc
00000010: 775e 82bc d48b 13bd 213b 133d 168d 893e
00000020: 9da6 a7bc d10e b7bc 5cb0 72bd 750e fa3d
00000030: 1331 bd3e adb2 efbc 19f3 3ebe d1a6 16be
00000040: fd27 cabd f4ce 4bbe bd71 03bd 9910 033d
00000050: 8f4e 693e fd4f acbd d98a ccbc 5579 bfbc
00000060: 6604 b5bb 290e fabc ec75 01bd cab4 213e
00000070: cdbd 3dbe 1bb3 533e 3075 06bd 62cc b13c
00000080: a85c b7bd 229e 96bc 79cd 44bd 35a7 75bc
00000090: 054b 81bc b9d4 32bd 5526 73bc 771c 3bbc
000000a0: f20a 09be 52d1 eb3c 4431 13bd c3c0 ac3d
000000b0: f46f 77bc 924a 2ebd d5b3 f43d dc7c 73bc
000000c0: f0c4 1c3c a4cd b7bd 9812 48be 5bb8 363c
000000d0: 58ea e6bc be37 fabc d7c7 23bd 66a4 813d
000000e0: aa72 713e fd35 f5bd 9c8c 0c3e c634 c4b8
000000f0: f6b1 2a3d 9b70 a0bc 2df6 403e 606e b7bc

sequential_2/conv2d_1/Conv2D f4 [64, 3, 3, 32]
-0.0059333025 -0.03818549 0.004587 -0.0383234 -0.0051145083 -0.053049974 0.072581425 0.024810743
-0.07657104 0.043891586 -0.012481472 -0.065978825 -0.06846283 0.07141916 -0.001429266 -0.017935263
0.040846497 -0.019158421 -0.02331108 0.054748807 -0.08190082 -0.032339983 -0.019824106 -0.026069738
0.035558805 0.045432955 0.014539037 0.0073234965 0.03812877 0.07809979 -0.030376002 0.048828054
0.063213736 0.014957337 -0.063787445 0.015051625 -0.0011307158 -0.07064911 -0.028362801 -0.08942144
0.021464173 -0.0169503 0.0024246536 -0.01314083 -0.0056015993 0.021644207 0.027202675 0.05764147
-0.005268875 0.06640176 -0.05137602 0.038300443 0.064297974 -0.038506195 0.032832358 -0.01568915
0.06757387 -0.005542979 -0.032866515 -0.07886324 -0.009062401 0.05428427 -0.010572408 -0.017810566
-0.0041880487 -0.056732696 -0.029417565 0.06775377 -0.014096018 -0.118036285 -0.07134641 -0.05741793
-0.06943883 0.07512887 0.06831085 -0.068670176 -0.002620305 0.023877388 0.0355307 0.020689452
-0.04274273 -0.055479903 -0.08534991 0.070346706 -0.021981386 -0.06898867 0.026221273 -0.038936965
-0.00045392767 -0.029834094 0.03186285 -0.0062016547 -0.004759988 -0.04525845 -0.10175745 0.024828479
0.03931946 0.03218907 -0.08164392 -0.064128354 -0.082838476 -0.08667581 -0.07971437 -0.060174152
0.060208045 -0.079201534 -0.09621691 0.0378057 0.04822561 -0.012601571 -0.0723777 0.066526756
-0.025985971 -0.011722083 0.05783911 -0.046046305 -0.07397195 -0.059017446 0.053627275 -0.023834798
-0.0025260048 0.043359414 0.028991086 -0.0010051839 -0.09330075 -0.06130644 -0.08646717 0.02996944
-0.018088337 -0.04967852 -0.049916334 0.06013376 0.011103041 -0.023790058 0.03659804 0.004295226
-0.0007321551 -0.05823732 -0.068982214 -0.035587355 0.011022186 -0.08080693 -0.03388867 -0.055922024
-0.045544505 0.05152264 -0.06479606 -0.056857284 0.024048237 -0.009018586 0.0031238312 -0.08618919
-0.043527827 -0.07672143 0.067299895 -0.025350163 0.001600719 -0.059204858 0.030571532 -0.046132024
0.053817105 -0.015467484 -0.07295273 -0.08656296 -0.02442167 -0.15147492 -0.06843185 0.02090741
-0.044953763 0.064663075 0.03897184 0.03570091 0.005544227 0.013022054 0.0028807733 -0.0013057064
0.015869543 -0.0025097146 -0.045534782 -0.014773019 0.008276329 -0.0026457 0.04438836 -0.0154876495
0.029336916 -0.026592316 0.0286933 -0.035353713 -0.05868066 0.04234318 -0.08106527 -0.06833344
-0.07028471 -0.10195836 0.06263048 0.026627244 -0.0037106234 -0.0940839 -0.038810723 -0.08277788
-0.051669545 0.055344436 0.04008078 -0.047686577 -0.057574607 -0.056438062 -0.030618167 0.04903657
0.06591497 0.060098365 -0.060747933 -0.0057051037 -0.08226409 -0.05421364 -0.0010098771 -0.057805467
-0.07230986 -0.02653303 0.07763863 0.016153462 0.048687443 -0.09559366 -0.065960474 -0.03929779
0.021519048 -0.0075523304 -0.03743826 0.0039563477 -0.11405744 -0.026399044 -0.039455745 -0.028216464
0.044951767 -0.059251737 -0.004476642 -0.019450083 0.005484427 -0.057988152 0.036118686 -0.0028742305
0.04957668 -0.032781906 0.07161517 0.014635634 -0.04030546 0.018880775 -0.093578644 -0.0034857579
0.08231933 -0.033098415 -0.050827578 -0.07768392 -0.017671393 -0.070979975 -0.07195811 0.053256977
00000000: 266c c2bb 6368 1cbd 8b4e 963b fff8 1cbd
00000010: 9b97 a7bb ee4a 59bd 92a5 943d e63f cb3c
00000020: 47d1 9cbd aac7 333d 177f 4cbc e81f 87bd
00000030: 3d36 8cbd 3544 923d 3556 bbba f9ec 92bc
00000040: a84e 273d 1ff2 9cbc e1f6 bebc 4940 603d
00000050: 9ebb a7bd ee76 04bd 2a66 a2bc 3490 d5bc
00000060: 1ca6 113d e817 3a3d 2435 6e3c f1f9 ef3b
00000070: ea2c 1c3d c8f2 9f3d 18d7 f8bc edff 473d
00000080: 3476 813d 9e0f 753c fea2 82bd 179b 763c
00000090: 8734 94ba 7bb0 90bd 1b59 e8bc 9722 b7bd
000000a0: a2d5 af3c 5bdb 8abc f0e6 1e3b a34c 57bc
000000b0: 9f8d b7bb 314f b13c 25d8 de3c 7619 6c3d
000000c0: 87a6 acbb a5fd 873d a96f 52bd ede0 1c3d
000000d0: a8ae 833d acb8 1dbd 397b 063d 8886 80bc
000000e0: 2b64 8a3d e1a1 b5bb 0a9f 06bd 0d83 a1bd
000000f0: 777a 14bc 2f59 5e3d e537 2dbc 77e7 91bc
00000100: e63b 89bb 8b60 68bd 1bfd f0bc 7dc2 8a3d
00000110: fcf2 66bc 02bd f1bd 111e 92bd 102f 6bbd
00000120: f235 8ebd 2add 993d 8fe6 8b3d f3a2 8cbd
00000130: 6cb9 2bbb 839a c33c a488 113d ed7c a93c
00000140: 0013 2fbd e53e 63bd efcb aebd ef11 903d
00000150: 4f12 b4bc ef49 8dbd ffcd d63c 5e7c 1fbd
00000160: 24fd edb9 a166 f4bc 9f82 023d 4037 cbbb
00000170: acf9 9bbb ed60 39bd 3666 d0bd 1865 cb3c
00000180: 710d 213d b0d8 033d ed34 a7bd ba55 83bd
00000190: 38a7 a9bd 1683 b1bd 4a41 a3bd 2c79 76bd
000001a0: b69c 763d 6a34 a2bd 5f0d c5bd 26da 1a3d
000001b0: 3888 453d d276 4ebc c23a 94bd 2e3f 883d
000001c0: 88e0 d4bc fb0d 40bc b4e8 6c3d 0d9b 3cbd
000001d0: 9b7e 97bd 47bc 71bd 46a8 5b3d 3241 c3bc
000001e0: 548b 25bb a499 313d b77e ed3c 60c0 83ba
000001f0: 7714 bfbd 761c 7bbd b315 b1bd 7982 f53c
00000200: fe2d 94bc b47b 4bbd 1275 4cbd d14e 763d
00000210: 87e9 353c 5ee3 c2bc d4e7 153d f8be 8c3b
00000220: 19ee 3fba 428a 6ebd 8c46 8dbd 0cc4 11bd
00000230: 6696 343c 1b7e a5bd d9ce 0abd 7e0e 65bd
00000240: e08c 3abd 6709 533d ccb3 84bd 2fe3 68bd
00000250: cf00 c53c b1c2 13bc 31b9 4c3b f583 b0bd
00000260: 3c4a 32bd 2020 9dbd 87d4 893d 25ab cfbc
00000270: 38cf d13a cb80 72bd 2671 fa3c eff4 3cbd
00000280: 536f 5c3d 546b 7dbc 3e68 95bd ec47 b1bd
00000290: f40f c8bc 3e1c 1bbe ff25 8cbd 0446 ab3c
000002a0: 7021 38bd 136e 843d f0a0 1f3d 1e3b 123d
000002b0: 59ac b53b 745a 553c 5bcb 3c3b 3d24 abba
000002c0: d800 823c 067a 24bb ae82 3abd 880a 72bc
000002d0: 7199 073c 7b63 2dbb 92d0 353d e9bf 7dbc
000002e0: f953 f03c 21d8 d9bc 360e eb3c 0ecf 10bd
000002f0: 225b 70bd 0b70 2d3d 8c05 a6bd 67f2 8bbd
00000300: 6ef1 8fbd 8bcf d0bd 6944 803d 6121 da3c
00000310: ee2d 73bb 0faf c0bd fef7 1ebd 7387 a9bd
00000320: 72a3 53bd d9b0 623d be2b 243d 0053 43bd
00000330: 5ad3 6bbd 992b 67bd f3d2 fabc 92da 483d
00000340: 6efe 863d b429 763d d3d2 78bd e1f1 babb
00000350: 137a a8bd 1f0f 5ebd da5d 84ba 6dc5 6cbd
00000360: 3117 94bd cc5b d9bc 0101 9f3d 4454 843c
00000370: 7c6c 473d 9cc6 c3bd 4916 87bd b8f6 20bd
00000380: b748 b03c 8a79 f7bb dc58 19bd 40a4 813b
00000390: f296 e9bd cf42 d8bc 599c 21bd 3726 e7bc
000003a0: 581f 383d f3b1 72bd cbb0 92bb c855 9fbc
000003b0: b5b6 b33b fc84 6dbd 30f1 133d 965d 3cbb
000003c0: eb10 4b3d 5246 06bd f9aa 923d 4cca 6f3c
000003d0: 5717 25bd dbab 9a3c 29a6 bfbd 5071 64bb
000003e0: 0997 a83d 3492 07bd 9430 50bd bf18 9fbd
000003f0: 99c3 90bc f35d 91bd c65e 93bd fd23 5a3d

sequential_2/conv2d_2/Conv2D f4 [64, 3, 3, 64]
-0.02701468 -0.021914944 0.016436346 -0.04456793 -0.061488405 0.0028877081 0.024094518 0.053546086
-0.23697078 -0.022126371 -0.021336941 0.05355678 -0.0153772775 -0.036553547 -0.06554083 -0.0641094
-0.15027797 0.017062265 0.056311134 0.013443085 0.039168455 0.10461432 0.057157036 0.027232219
-0.06763935 -0.062487666 0.016868256 -0.021882653 0.0017717401 0.03211955 -0.07728007 0.01820699
-0.00137471 0.045982152 0.0426227 0.007615646 -0.0017280842 -0.0640977 0.087619394 0.09108499
0.012038849 0.0043511325 0.02400005 -0.02907519 -0.024660109 0.031852614 -0.0027750994 -0.014239259
-0.003091688 -0.071875334 -0.11123303 -0.051534936 0.03294273 -0.013142203 0.06292469 0.07993534
-0.0118641695 0.03494047 -0.0026408199 0.115345284 -0.073887885 -0.04875038 -0.026384713 -0.053009734
0.058929555 0.07027315 -0.048516344 -0.13598788 -0.09221105 -0.056550298 0.012318753 -0.08081122
-0.04284362 -0.08164465 0.07610149 0.03369429 -0.104318686 -0.05664552 0.06489269 -0.0032135951
-0.011779916 -0.007302761 0.060048934 0.012756553 0.060266554 0.048461888 -0.038953006 0.024549762
-0.03539677 -0.03586549 -0.019847415 -0.07010679 -0.018734893 0.100520514 -0.054190855 -0.055045415
-0.022659339 0.07163912 0.046286233 0.12464547 -0.015541903 -0.0115513075 0.10194974 0.08698533
0.010678642 -0.027181251 0.0020162212 0.02735185 -0.030828405 0.021426799 0.04871093 -0.0035848154
0.017038524 -0.17263293 0.046607558 -0.038103938 0.048194684 0.010506927 -0.042459458 -0.038358405
-0.019264493 0.06345861 -0.036754873 0.22098997 -0.20513147 0.083035246 -0.06233286 -0.08412659
-0.037993323 0.024897179 -0.043776482 -0.024205906 -0.14009722 0.03104604 0.017165754 -0.015176493
-0.086818606 -0.07790651 0.0395213 0.044668373 -0.14333627 -0.0069558765 0.010055541 -0.06378696
0.108758606 -0.07680377 0.065711305 -0.040012863 -0.020872444 0.054314412 -0.1129708 -0.09039856
-0.035984155 0.0040358067 -0.04666915 -0.056771554 0.05507484 0.027120946 -0.033928875 0.04499369
-0.061211225 0.026583776 -0.08242487 0.00494847 -0.06455323 0.0597751 -0.03283268 0.021916585
-0.071010746 -0.072899014 -0.027447658 -0.027244477 0.016663171 -0.011927431 0.0012878552 -0.04658343
0.00056555955 -0.08261725 0.0026967116 -0.07327011 -0.05189787 0.044487346 0.0014209892 0.09823952
-0.07231443 0.061901968 -0.06243567 0.18353045 -0.18795627 0.07220263 0.03477046 -0.14222114
-0.048220128 -0.108541474 -0.015141991 -0.13960761 -0.18313773 0.009486632 -0.017430115 0.023307562
-0.19667576 -0.07079108 0.071657635 -0.02575324 -0.018530667 -0.013451478 0.08767268 0.07495043
-0.09086963 0.031165473 0.08891393 -0.028417917 -0.0023910538 -0.0018464192 0.11159013 -0.03801403
-0.065687835 0.017994918 -0.014070062 -0.05205481 0.02704281 0.09930964 -0.07276231 0.06583071
0.020994922 0.016937023 0.04170488 0.067316405 0.022104442 0.0004920751 -0.004362583 0.008478633
0.057652853 0.05665526 -0.012865096 -0.057309274 0.034865875 0.020617684 -0.06431913 -0.061908733
0.019739477 -0.14666356 0.048594538 -0.04356379 -0.069781564 -0.03350781 0.052166708 4.1978295e-05
0.017426504 0.004127525 -0.014855407 0.026166584 -0.208016 0.108761564 -0.0794556 -0.03329557
00000000: e44d ddbc f886 b3bc 84a5 863c dd8c 36bd
00000010: 44db 7bbd b43f 3d3b de61 c53c 2453 5b3d
00000020: 78a8 72be 5d42 b5bc cfca aebc 5b5e 5b3d
00000030: faf0 7bbc 2cb9 15bd 453a 86bd ca4b 83bd
00000040: 78e2 19be 2ac6 8b3c 81a6 663d 6340 5c3c
00000050: 1a6f 203d 0840 d63d 7f1d 6a3d 1a16 df3c
00000060: 8086 8abd 11f3 7fbd 4c2f 8a3c 4043 b3bc
00000070: bc39 e83a ca8f 033d 0345 9ebd d326 953c
00000080: 9d2f b4ba c857 3c3d 2495 2e3d ab8c f93b
00000090: e280 e2ba a845 83bd cc71 b33d c48a ba3d
000000a0: 983e 453c f293 8e3b c19b c43c 182f eebc
000000b0: ff03 cabc e377 023d 71de 35bb c84b 69bc
000000c0: eb9d 4abb 6033 93bd 25ce e3bd 4c16 53bd
000000d0: f5ee 063d 6552 57bc a9de 803d 24b5 a33d
000000e0: ef61 42bc bd1d 0f3d 9b11 2dbb 263a ec3d
000000f0: 8852 97bd 7aae 47bd c124 d8bc bc20 59bd
00000100: 1e60 713d 5feb 8f3d 13b9 46bd 6840 0bbe
00000110: 26d9 bcbd 49a1 67bd 98d4 493c 5a80 a5bd
00000120: cb7c 2fbd 4f35 a7bd 19db 9b3d 0603 0a3d
00000130: 09a5 d5bd 2205 68bd 75e6 843d 2e9b 52bb
00000140: 8c00 41bc 004c efbb dff5 753d dc00 513c
00000150: 10da 763d f97f 463d 308d 1fbd 951c c93c
00000160: 34fc 10bd b1e7 12bd 0c97 a2bc 2694 8fbd
00000170: eb79 99bc b3dd cd3d 3bf7 5dbd 4d77 61bd
00000180: 14a0 b9bc 88b7 923d a296 3d3d 2046 ff3d
00000190: 77a3 7ebc b241 3dbc 06cb d03d 5d25 b23d
000001a0: 79f5 2e3c 37ab debc 9422 043b fd10 e03c
000001b0: da8b fcbc 4187 af3c 1d85 473d 39ef 6abb
000001c0: 6094 8b3c b0c6 30be 91e7 3e3d e012 1cbd
000001d0: ca67 453d 3f25 2c3c f8e9 2dbd b41d 1dbd
000001e0: 92d0 9dbc 96f6 813d 478c 16bd 324b 623e
000001f0: fc0d 52be 620e aa3d be50 7fbd 904a acbd
00000200: e39e 1bbd 2bf5 cb3c f84e 33bd 774b c6bc
00000210: a575 0fbe 4454 fe3c 329f 8c3c d3a6 78bc
00000220: f4cd b1bd 738d 9fbd 16e1 213d 2ff6 363d
00000230: bec6 12be 1fee e3bb ffbf 243c bda2 82bd
00000240: d5bc de3d 4c4b 9dbd a693 863d 87e4 23bd
00000250: b0fc aabc ca78 5e3d 3c5d e7bd e122 b9bd
00000260: 1f64 13bd cd3e 843b 2728 3fbd 4a89 68bd
00000270: 2896 613d bf2c de3c 01f9 0abd 4e4b 383d
00000280: 9fb8 7abd 38c6 d93c 5fce a8bd c626 a23b
00000290: 7c34 84bd bcd6 743d 8f7b 06bd 698a b33c
000002a0: 156e 91bd 144c 95bd e9d9 e0bc cf2f dfbc
000002b0: 3481 883c 466b 43bc 40cd a83a 44ce 3ebd
000002c0: 0f42 143a 3c33 a9bd 50bb 303b a40e 96bd
000002d0: dc92 54bd 5d38 363d 7c40 ba3a cd31 c93d
000002e0: 9619 94bd eb8c 7d3d 8cbc 7fbd 68ef 3b3e
000002f0: 9c77 40be f9de 933d 786b 0e3d 6ba2 11be
00000300: 7882 45bd fe4a debd 1d16 78bc 4cf5 0ebe
00000310: 7588 3bbe d26d 1b3c 9ac9 8ebc 80ef be3c
00000320: 5f65 49be eafa 90bd 3dc1 923d 75f8 d2bc
00000330: a0cd 97bc 9763 5cbc bc8d b33d 9c7f 993d
00000340: db19 babd bc4e ff3c 8218 b63d b1cc e8bc
00000350: 3ab3 1cbb 8c03 f2ba 5e89 e43d 99b4 1bbd
00000360: 5887 86bd 146a 933c 1e86 66bc 6d37 55bd
00000370: e288 dd3c da62 cb3d 6804 95bd 40d2 863d
00000380: 8bfd ab3c 83bf 8a3c bcd2 2a3d 2fdd 893d
00000390: 6014 b53c 9afe 003a 00f4 8ebb f7e9 0a3c
000003a0: 6625 6c3d 590f 683d 20c8 52bc 21bd 6abd
000003b0: 85cf 0e3d 6be6 a83c bfb9 83bd 0394 7dbd
000003c0: afb4 a13c f92e 16be 110b 473d f26f 32bd
000003d0: a3e9 8ebd 7c3f 09bd c2ac 553d da11 3038
000003e0: 07c2 8e3c 3040 873b 1864 73bc 4e5b d63c
000003f0: 2502 55be 62be de3d 9eb9 a2bd f060 08bd

sequential_2/conv2d_3/Conv2D f4 [64, 3, 3, 64]
0.0040188516 -0.092631646 -0.08453676 -0.069391064 -0.02810945 0.016173009 -0.023819638 -0.023840783
0.0037020529 0.005621084 0.026775915 -0.009398496 -0.016901234 0.047085002 -0.027794175 0.028278463
-0.06596862 -0.18631019 0.049598277 -0.046132553 0.03918519 -0.080055505 0.010934051 -0.07778835
-0.037880857 -0.09193111 -0.123221636 -0.031575065 -0.07518723 0.004448768 0.019574793 0.029458893
-0.07197476 -0.033308264 0.052091636 -0.05829091 -0.03024478 -0.06367958 -0.049172558 0.010489823
0.03900571 -0.066875994 -0.069973655 -0.007195738 -0.09659 -0.096160166 -0.04600001 -0.038008604
-0.022940852 0.010580462 -0.06145946 -0.024926323 0.0011581837 0.052563716 -0.036662754 0.029849723
-0.043766357 -0.062960245 0.06753552 0.009819983 -0.071458735 0.037449915 0.06300346 0.063489735
-0.06123101 -0.17588241 0.053613883 -0.11416885 0.0093093105 -0.009832593 -0.040484857 0.07028237
0.017864393 0.02096977 0.050145406 -0.06761582 0.05497353 -0.00393361 -0.016633347 0.0047019543
0.05782616 -0.18633106 -0.04750123 -0.05800144 0.038775485 0.03727181 -0.06968309 -0.08614288
0.001182307 0.053129785 -0.090478346 -0.0063173925 -0.123233095 0.027366329 -0.016438046 -0.07957428
0.015975669 0.021249343 -0.009321534 0.03258912 -0.030250696 -0.009938074 -0.11367677 -0.018919274
-0.0416405 0.004193324 -0.026986316 -0.15173793 -0.06404286 -0.055014454 -0.08274594 -0.07156859
-0.042740777 0.004116695 0.04201238 -0.15177406 0.0077031916 -0.038489055 -0.008049928 -0.05600227
0.01887051 0.09986658 0.021551609 -0.09342643 -0.039434854 0.026900386 0.05718291 -0.06315128
0.0400659 -0.06326921 -0.0010741486 0.01535373 -0.015647126 0.006610783 0.05064721 -0.030746248
-0.054239072 -0.062625326 -0.017358758 0.013777192 -0.0707764 0.053914044 -0.06933558 -0.016580094
-0.02151235 -0.03591116 -0.1122979 -0.038164888 0.042950943 -0.024891812 -0.011423295 0.03233121
-0.017143473 -0.03815329 -0.1272366 0.031641625 -0.1182129 0.05957437 -0.012753658 -0.047785114
0.026600964 0.038212035 -0.07022987 -0.006819326 0.012091462 -0.055735867 -0.067967445 -0.10712854
0.012883585 0.04196973 -0.026319873 -0.00018778155 -0.075967476 -0.05822661 -0.04283912 -0.03239713
-0.06478704 0.0451915 -0.0040839235 -0.052238937 0.03755975 -0.0822999 0.06398281 -0.049183708
0.056117356 0.024078738 0.033006225 -0.017191034 -0.06620017 0.017195143 -0.033963732 -0.05437246
0.002809461 -0.093932524 0.0042688767 0.02251326 0.07737511 0.00986142 -0.0068530217 0.002093359
0.008986895 -0.04500536 0.025056494 -0.049574 -0.0019267217 -0.052625515 -0.07920874 0.0043141395
0.041823544 -0.1268172 -0.040853493 -0.0995386 -0.039992213 -0.034359675 -0.062066138 -0.014903755
-0.012045248 0.0077047264 -0.04592172 -0.07872675 -0.0046819705 0.043686002 -0.11498617 0.027437087
0.00062199705 0.021318942 0.00026285913 0.020904083 0.048308183 0.018146703 -0.09243037 0.035329238
0.011966414 -0.11540187 -0.0114869205 -0.093975365 -0.017773211 -0.032518853 -0.030683726 -0.05960359
0.024996167 -0.025426358 0.053911757 -0.04572571 0.041501477 0.002419619 0.031816255 0.062356643
0.063417844 0.028680267 -0.05695183 -0.049425744 -0.055163912 -0.024379253 -0.006436191 -0.06476572
00000000: 92b0 833b a9b5 bdbd 9c21 adbd e71c 8ebd
00000010: ca45 e6bc 427d 843c 6721 c3bc bf4d c3bc
00000020: 249e 723b 1231 b83b 2a59 db3c 26fc 19bc
00000030: 7574 8abc 34dc 403d 9cb0 e3bc 3ca8 e73c
00000040: 8e1a 87bd 19c8 3ebe 9027 4b3d 7df5 3cbd
00000050: a680 203d 24f4 a3bd bc24 333c 804f 9fbd
00000060: f528 1bbd 6146 bcbd a05b fcbd db54 01bd
00000070: c3fb 99bd f9c6 913b 515b a03c c753 f13c
00000080: 8167 93bd 3f6e 08bd 0a5e 553d 73c2 6ebd
00000090: e7c3 f7bc 716a 82bd 2a69 49bd 82dd 2b3c
000000a0: 74c4 1f3d 48f6 88bd 594e 8fbd 3aca ebbb
000000b0: fad0 c5bd 9fef c4bd 826a 3cbd e9ae 1bbd
000000c0: 74ee bbbc ad59 2d3c eabc 7bbd 4a32 ccbc
000000d0: 32ce 973a 0d4d 573d af2b 16bd 6887 f43c
000000e0: 5a44 33bd 4df1 80bd 1050 8a3d fee3 203c
000000f0: f558 92bd 1565 193d f507 813d e806 823d
00000100: 5ecd 7abd 851a 34be 3b9a 5b3d 5cd1 e9bd
00000110: 1486 183c e218 21bc 73d3 25bd 34f0 8f3d
00000120: 5958 923c ccc8 ab3c 4565 4d3d 2a7a 8abd
00000130: ed2b 613d 83e5 80bb a842 88bc da12 9a3b
00000140: 20db 6c3d 92cd 3ebe a690 42bd eb92 6dbd
00000150: 0bd3 1e3d 53aa 183d 02b6 8ebd ae6b b0bd
00000160: a4f7 9a3a 9e9e 593d b64c b9bd 2102 cfbb
00000170: a261 fcbd 5a2f e03c 15a9 86bc d7f7 a2bd
00000180: 68df 823c 1a13 ae3c 59b9 18bc 2b7c 053d
00000190: 4fd0 f7bc 4ed3 22bc 5ecf e8bd 98fc 9abc
000001a0: 3b8f 2abd 2768 893b 6812 ddbc 3061 1bbe
000001b0: e728 83bd d656 61bd b476 a9bd 8e92 92bd
000001c0: f410 2fbd 57e5 863b 2c15 2c3d a96a 1bbe
000001d0: 0e6b fc3b b3a6 1dbd d8e3 03bc a362 65bd
000001e0: 5496 9a3c d986 cc3d 008d b03c 5b56 bfbd
000001f0: 7186 21bd 335e dc3c a138 6a3d 7555 81bd
00000200: 241c 243d 4a93 81bd 72ca 8cba 368e 7b3c
00000210: 672e 80bc 449f d83b 7373 4f3d 8edf fbbc
00000220: ca29 5ebd b541 80bd f433 8ebc bbb9 613c
00000230: 38f3 90bd f9d4 5c3d d0ff 8dbd fad2 87bc
00000240: ab3a b0bc 9517 13bd 71fc e5bd c952 1cbd
00000250: 54ed 2f3d eae9 cbbc c628 3bbc bb6d 043d
00000260: 7870 8cbc a046 1cbd 504a 02be a69a 013d
00000270: 9b19 f2bd 4104 743d b8f4 50bc 53ba 43bd
00000280: 44ea d93c 3984 1c3d aed4 8fbd a774 dfbb
00000290: 441b 463c 4b4b 64bd 8432 8bbd 3566 dbbd
000002a0: ac15 533c 74e8 2b3d c69c d7bc 3ae7 44b9
000002b0: d694 9bbd 077f 6ebd 1378 2fbd dab2 04bd
000002c0: 11af 84bd b91a 393d 6fd2 85bb 7ff8 55bd
000002d0: 41d8 193d da8c a8bd 6b09 833d db74 49bd
000002e0: 50db 653d c640 c53c 8931 073d 36d4 8cbc
000002f0: f493 87bd d4dc 8c3c 8e1d 0bbd a8b5 5ebd
00000300: ef1e 383b b25f c0bd efe1 8b3b ba6d b83c
00000310: d776 9e3d cb91 213c 508f e0bb bc30 093b
00000320: c53d 133c 8a57 38bd 4743 cd3c 1b0e 4bbd
00000330: 0d8a fcba da8d 57bd 3138 a2bd a05d 8d3b
00000340: 2a4f 2b3d 5edc 01be fe55 27bd e5da cbbd
00000350: e0ce 23bd bbbc 0cbd 1039 7ebd e12e 74bc
00000360: 6f59 45bc ee77 fc3b 6a18 3cbd 7e3b a1bd
00000370: 376b 99bb 18f0 323d de7d ebbd bec3 e03c
00000380: 840d 233a 10a5 ae3c 5bd0 8939 0a3f ab3c
00000390: cdde 453d 65a8 943c 224c bdbd 64b5 103d
000003a0: c70e 443c d157 ecbd a333 3cbc 2876 c0bd
000003b0: 2099 91bc 7d32 05bd 705c fbbc e522 74bd
000003c0: c3c4 cc3c f04a d0bc 93d2 5c3d e24a 3bbd
000003d0: 74fd 293d 7892 1e3b c351 023d ae69 7f3d
000003e0: 37e1 813d e1f2 ea3c 5246 69bd a672 4abd
000003f0: 8ef3 61bd 00b7 c7bc afe6 d2bb e4a3 84bd

sequential_2/conv2d_4/Conv2D f4 [64, 3, 3, 64]
0.003304179 0.06769036 0.05634454 -0.05835337 0.05567745 -0.060954336 -0.078841686 -0.0532324
0.033707388 0.04509836 0.052188203 -0.017348893 -0.009507892 -0.016008105 0.0016806008 0.053239163
0.07650401 -0.03274915 -0.033386122 -0.028861577 0.059488673 -0.048229244 -0.075395636 0.011493894
-0.022136582 0.030435123 0.001992774 0.036316738 0.028183572 -0.0003268475 -0.014549019 0.011244292
-0.07805697 0.03449245 0.0024279018 0.031384528 0.05845972 0.0020487488 0.051259205 0.02878143
-0.076490685 0.017222378 0.019744951 -0.034207802 0.07027585 -0.08718408 0.028943375 0.05973399
0.0162787 -0.019096494 -0.05298714 0.03618261 -0.010680935 -0.024436917 -0.021925071 0.06644783
0.025830561 0.004260961 -0.009738793 -0.007151256 -0.029144723 -0.05489728 0.06992167 -0.058666863
-0.0066514607 0.034081515 -0.059204493 -0.06170919 -0.040805113 0.01985956 -0.02425082 -0.05321843
0.049993575 -0.014405271 0.057821754 -0.054017264 -0.04075988 0.018028205 -0.06120731 -0.040562887
-0.062416825 -0.014014826 0.011078389 0.021384038 -0.056918565 -0.051093984 -0.071901746 -0.012364444
0.0068002115 -0.058409613 0.022828799 0.033059135 0.030838933 -0.02048668 -0.023825716 -0.06163288
-0.01191788 0.0016404191 -0.014683195 0.022965599 0.022991514 -0.061212275 0.061693873 -0.053139593
-0.052060068 0.001531887 -0.00017353575 -0.09500687 0.014211832 -0.073658034 -0.0069835447 0.028689267
0.049841058 -0.047256574 0.028586473 0.00687361 -0.0195359 -0.07270472 0.040782735 -0.033033006
0.030065013 -0.08514714 -0.013178719 0.009292986 -0.04613378 0.03836675 0.007806575 0.05338812
0.04862185 0.042744152 -0.0585041 0.01631038 -0.025760693 -0.024902396 -0.03202719 -0.018201059
-0.02953687 0.0628695 -0.023810264 -0.040744722 -0.074908875 0.04429547 -0.06845632 -0.025755547
0.0194173 -0.03049045 0.03361446 -0.007957129 0.01426232 -0.0013839984 -0.087251365 -0.046287842
0.043105006 -0.00832944 -0.01744258 -0.066862136 0.066181816 -0.029358597 -0.053343136 0.010200561
-0.06567361 0.004353778 -0.054549135 0.025490174 0.06463008 0.027440099 -0.042878494 0.055284373
0.017253427 -0.054803558 -0.04514908 -0.0069465316 -0.004735016 -0.05701493 -0.056003273 0.03047095
0.041972395 -0.08383837 -0.008651498 -0.02309112 -0.051455796 -0.054420643 -0.026994271 -0.04480026
-0.02578082 -0.06811686 0.03264744 0.053662814 -0.009126813 -0.037925623 -0.033712234 0.04864289
-0.019792708 0.05930068 -0.049398128 -0.05951614 -0.028120283 0.06387045 0.05130472 0.072963946
-0.011458144 -0.00013499276 -0.041479032 0.021381803 -0.050273743 -0.031194285 -0.063300595 -0.063424505
0.07440297 -0.03759233 0.0020321151 0.0047602695 -0.033632137 -0.008500893 -0.1539608 -0.006871993
-0.01953226 -0.038875394 -0.051551204 -0.050551593 0.059329297 0.041663103 0.026715308 -0.015739376
0.0069927806 -0.03194053 -0.036398474 -0.074555196 -0.021825885 0.019901164 -0.05508905 0.0464951
0.018696692 0.032933746 -0.06643681 -0.11209929 0.039094023 -0.08421635 0.034960505 -0.069187894
-0.045754492 -0.065452345 -0.047472086 0.06755421 0.018437862 0.00064221787 0.018163929 0.006103369
-0.02117301 -0.05630779 0.05851573 -0.057505812 -0.025430594 -0.013566529 0.07403671 0.0060794223
00000000: ed8a 583b 3ea1 8a3d 88c9 663d f103 6fbd
00000010: 0a0e 643d 41ab 79bd c077 a1bd 380a 5abd
00000020: c210 0a3d 0fb9 383d 4cc3 553d 441f 8ebc
00000030: fdc6 1bbc 6e23 83bc 9b47 dc3a 4f11 5a3d
00000040: 22ae 9c3d f923 06bd e3bf 08bd 1d6f ecbc
00000050: 65aa 733d 078c 45bd 0769 9abd e350 3c3c
00000060: c757 b5bc 1453 f93c 3399 023b dcc0 143d
00000070: 3ce1 e63c bb5c abb9 025f 6ebc fb39 383c
00000080: 55dc 9fbd f547 0d3d 6f1d 1f3b 108d 003d
00000090: 7673 6f3d 4d44 063b 2cf5 513d 09c7 eb3c
000000a0: 26a7 9cbd f215 8d3c 2ac0 a13c 7b1d 0cbd
000000b0: c9ec 8f3d 918d b2bd a81a ed3c a1ab 743d
000000c0: e95a 853c 4070 9cbc 0b09 59bd 3734 143d
000000d0: 17ff 2ebc ee2f c8bc 359c b3bc cd15 883d
000000e0: 9d9a d33c 889f 8b3b 758f 1fbc 1555 eabb
000000f0: eac0 eebc f8db 60bd 1833 8f3d aa4c 70bd
00000100: 7ff4 d9bb 0f99 0b3d 6980 72bd c7c2 7cbd
00000110: 4323 27bd 84b0 a23c a8a9 c6bc 92fb 59bd
00000120: 10c6 4c3d 1604 6cbc 81d6 6c3d 3541 5dbd
00000130: d5f3 26bd e3af 933c 84b4 7abd 4525 26bd
00000140: c9a8 7fbd 719e 65bc 2282 353c 942d af3c
00000150: 7123 69bd ed47 51bd 3941 93bd 3d94 4abc
00000160: 4fd4 de3b eb3e 6fbd 7603 bb3c 0469 073d
00000170: eea1 fc3c afd3 a7bc 262e c3bc c272 7cbd
00000180: 3643 43bc 5503 d73a c991 70bc 5a22 bc3c
00000190: b358 bc3c b9b9 7abd b7b2 7c3d e7a8 59bd
000001a0: f03c 55bd 99c9 c83a 26f7 35b9 f692 c2bd
000001b0: bed8 683c 06da 96bd 38d6 e4bb c105 eb3c
000001c0: 2326 4c3d 1c90 41bd 2e2e ea3c 053c e13b
000001d0: c009 a0bc 36e6 94bd cc0b 273d 9e4d 07bd
000001e0: e74a f63c a061 aebd 8eeb 57bc 9c41 183c
000001f0: c6f6 3cbd 7426 1d3d 4cce ff3b 80ad 5a3d
00000200: b427 473d 7e14 2f3d ffa1 6fbd 599d 853c
00000210: 1708 d3bc 1c00 ccbc f12e 03bd 631a 95bc
00000220: 4ef7 f1bc b9c1 803d be0d c3bc f0e3 26bd
00000230: d369 99bd 2b6f 353d d432 8cbd 4cfd d2bc
00000240: 0811 9f3c 1cc7 f9bc 51af 093d 9e5e 02bc
00000250: 81ac 693c 4867 b5ba d8b0 b2bd 5298 3dbd
00000260: e08e 303d 3478 08bc bee3 8ebc 04ef 88bd
00000270: 558a 873d 7181 f0bc 557e 5abd 4120 273c
00000280: e37f 86bd 23aa 8e3b ea6e 5fbd c5d0 d03c
00000290: c65c 843d 0fca e03c 5ca1 2fbd de71 623d
000002a0: 0f57 8d3c b279 60bd 3eee 38bd bb9f e3bb
000002b0: 3128 9bbb 7d88 69bd b063 65bd 379e f93c
000002c0: 3feb 2b3d 74b3 abbd 03bf 0dbc 9729 bdbc
000002d0: 50c3 52bd 2ee8 5ebd 1723 ddbc 7a80 37bd
000002e0: 4c32 d3bc da80 8bbd 52b9 053d 8acd 5b3d
000002f0: a188 15bc e657 1bbd d715 0abd c43d 473d
00000300: 5124 a2bc 45e5 723d b155 4abd 32c7 73bd
00000310: 825c e6bc 83ce 823d e624 523d 1f6e 953d
00000320: f0ba 3bbc d88c 0db9 ebe5 29bd e428 af3c
00000330: d7eb 4dbd 288b ffbc bea3 81bd b5e4 81bd
00000340: 9660 983d 6afa 19bd 3c2d 053b 09fc 9b3b
00000350: dac1 09bd 5447 0bbc e6a7 1dbe 752e e1bb
00000360: 1e02 a0bc ce3b 1fbd 5b27 53bd 300f 4fbd
00000370: 4703 733d eea6 2a3d 10da da3c ddef 80bc
00000380: b223 e53b 13d4 02bd 9116 15bd 65b0 98bd
00000390: 33cc b2bc c407 a33c 0ea5 61bd a571 3e3d
000003a0: ce29 993c 89e5 063d 0610 88bd 5094 e5bd
000003b0: 0e21 203d 9f79 acbd bf32 0f3d 62b2 8dbd
000003c0: 1069 3bbd e10b 86bd 1772 42bd dd59 8a3d
000003d0: 000b 973c 835a 283a 85cc 943c c5fe c73b
000003e0: 0573 adbc ffa2 66bd 31ae 6f3d 378b 6bbd
000003f0: d253 d0bc 2646 5ebc 8fa0 973d e435 c73b

sequential_2/conv2d_5/Conv2D f4 [64, 3, 3, 64]
-0.05459931 -0.062488787 0.04776963 -0.06968947 -0.035190754 -0.004474021 0.026834494 0.018082526
0.0014088519 -0.060069762 0.05525252 0.011500225 -0.06419619 -0.09193034 -0.07939036 -0.054824993
0.02205451 0.017784651 0.05196162 -0.012993625 -0.06691159 0.047357693 0.030225802 -0.078589045
-0.0645083 -0.06998038 -0.037192013 0.02040681 -0.062327877 -0.009164759 0.018643277 0.00043171266
0.00037847404 -0.08474422 0.018896068 0.021026311 0.04175595 -0.0430167 0.041128993 -0.010971791
-0.10299167 -0.050133392 0.022925727 -0.022035083 0.0014816059 -0.09070824 0.0026309341 0.029639635
0.042099543 -0.06360398 0.0046969797 -0.013520168 -0.092139035 -0.027446738 0.0038042907 -0.068773866
-0.0008125526 0.06265434 -0.05905421 -0.0045090676 -0.0019585001 0.0393221 0.043314114 -0.07862541
-0.07731886 0.038125042 -0.054639578 0.00016558086 0.010850158 0.05646258 -0.017798197 0.005854316
-0.012416607 -0.0011222244 -0.034251846 0.023998376 -0.08955663 -0.106218316 0.04900338 -0.0313284
0.01289092 -0.03424354 0.023954593 0.038501088 -0.07337127 -0.007627558 -0.04276346 -0.037752613
-0.029192371 0.0096511515 0.012970365 0.009616591 -0.0898321 -0.052461743 0.02491649 0.05571948
-0.073511824 0.018075936 0.020925235 -0.024676371 0.052871585 0.01409996 0.02761301 -0.047777887
0.000572248 -0.019585589 0.017201206 -0.055633742 -0.0085898675 0.0015037128 -0.08984797 -0.011705367
-0.06075162 0.05741416 -0.0014491952 0.02074141 0.02157813 -0.044437137 -0.07803794 -0.062372603
-0.0019168893 -0.049522124 0.0033204786 -0.018525675 -0.033406634 -0.05243017 -0.053927287 0.017090458
0.03340304 -0.015088727 0.04754688 0.037860516 -0.07997819 -0.042523023 0.0014898602 0.035299897
0.0258239 -0.04723189 -0.015989808 -0.08059418 -0.0104550235 -0.051040415 0.06369919 -0.029847119
-0.010196627 -0.011552709 -0.07954207 -0.050203398 -0.10842986 -0.027928395 -0.04522421 -0.033181325
0.028065208 -0.07523603 -0.029233046 -0.008915997 -0.049910627 -0.005198069 -0.010571452 0.026504913
-0.011014244 0.032609206 -0.06949851 -0.020104593 0.051174324 -0.078035906 0.027174965 0.0149227185
-0.033001963 -0.06622073 0.027932802 -0.0383517 -0.057043303 -0.10658297 -0.0770617 0.02051982
-0.019746669 -0.011863156 -0.013523052 -0.04051419 -0.033695627 0.0267899 -0.0700106 -0.00014055376
0.046031952 0.014889419 -0.038483944 -0.027723163 -0.0069430764 -0.049612824 -0.039969124 0.0115540335
-0.037801273 0.00812225 0.06035803 -0.024881212 0.032769773 -0.032757025 0.010534831 0.030073851
0.039404478 -0.01791556 -0.043020144 -0.056415256 -0.030876203 -0.0752441 -0.016588407 0.011099556
-0.047496956 -0.0012030858 0.017640313 -0.030351376 0.0137030985 -0.05208062 0.024296062 -0.035795283
-0.041804954 -0.046106607 -0.055090457 -0.03389799 -0.058380116 0.06047491 -0.015452771 -0.016646516
0.00914011 -0.08611901 -0.07902981 -0.06201059 0.020857092 -0.07150397 0.022174899 0.014437275
-0.0017324043 0.026656987 -0.054232027 0.026103687 -0.01798628 -0.11442755 -0.009300681 -0.088347755
-0.0408095 0.028348584 0.00947748 0.031095114 -0.013349238 -0.075301066 -0.046848577 0.0051512416
-0.044581275 0.009182048 -0.081050895 -0.040026195 0.024325237 -0.07240284 0.0023652152 0.03188094
00000000: 87a3 5fbd 3ef4 7fbd 16aa 433d 5ab9 8ebd
00000010: 2e24 10bd cf9a 92bb 03d4 db3c ce21 943c
00000020: 3aa9 b83a b60b 76bd 7750 623d 716b 3c3c
00000030: 4b79 83bd f945 bcbd 6a97 a2bd 2c90 60bd
00000040: a9ab b43c 1eb1 913c b5d5 543d 37e3 54bc
00000050: f208 89bd 24fa 413d 1a9c f73c 4bf3 a0bd
00000060: ed1c 84bd e051 8fbd a756 18bd 2f2c a73c
00000070: 844b 7fbd c927 16bc c9b9 983c 7e57 e239
00000080: ed6d c639 618e adbd edcb 9a3c 5f3f ac3c
00000090: 4908 2b3d 4732 30bd e076 283d 07c3 33bc
000000a0: 4ced d2bd ac58 4dbd bcce bb3c eb82 b4bc
000000b0: 7232 c23a 3ec5 b9bd c06b 2c3b d2ce f23c
000000c0: 9270 2c3d ce42 82bd 1fe9 993b b283 5dbc
000000d0: 64b3 bcbd fbd7 e0bc 6851 793b 50d9 8cbd
000000e0: 7b01 55ba eb50 803d d4e2 71bd cdc0 93bb
000000f0: 2e5a 00bb 3610 213d 246a 313d 5c06 a1bd
00000100: 5a59 9ebd 0129 1c3d c0cd 5fbd c69f 2d39
00000110: dcc4 313c 4e45 673d 86cd 91bc 90d5 bf3b
00000120: 066f 4bbc 9a17 93ba aa4b 0cbd 3e98 c43c
00000130: 7769 b7bd fd88 d9bd c5b7 483d 3552 00bd
00000140: 7034 533c f442 0cbd 6c3c c43c 51b3 1d3d
00000150: ad43 96bd 98f0 f9bb bd28 2fbd 7ca2 1abd
00000160: d724 efbc dd1f 1e3c a781 543c e88e 1d3c
00000170: e4f9 b7bd 20e2 56bd ab1d cc3c 1c3a 643d
00000180: 5e8d 96bd fc13 943c 666b ab3c 1a26 cabc
00000190: e08f 583d 8503 673c ae34 e23c bfb2 43bd
000001a0: ea02 163a f571 a0bc 8be9 8c3c 35e0 63bd
000001b0: 84bc 0cbc 3b18 c53a 3602 b8bd dec7 3fbc
000001c0: b1d6 78bd 1c2b 6b3d ecf2 bdba e4e9 a93c
000001d0: 9ec4 b03c b703 36bd 5bd2 9fbd 6a7a 7fbd
000001e0: 2240 fbba b6d7 4abd 639c 593b 28c3 97bc
000001f0: 65d5 08bd 05c1 56bd dce2 5cbd 4a01 8c3c
00000200: a0d1 083d b536 77bc 84c0 423d a113 1b3d
00000210: 9bcb a3bd 9f2c 2ebd 6a47 c33a a096 103d
00000220: a58c d33c 3a76 41bd 0ffd 82bc 900e a5bd
00000230: 8c4b 2bbc c10f 51bd b974 823d f281 f4bc
00000240: c10f 27bc 9347 3dbc f4e6 a2bd 14a2 4dbd
00000250: 7910 debd 17ca e4bc 053d 39bd 24e9 07bd
00000260: 02e9 e53c 5915 9abd 247a efbc 6714 12bc
00000270: 166f 4cbd 9054 aabb e233 2dbc d520 d93c
00000280: 1675 34bc 3b91 053d 3c55 8ebd 63b2 a4bc
00000290: 2b9c 513d 4ad1 9fbd 089e de3c 6b7e 743c
000002a0: 112d 07bd bc9e 87bd 55d3 e43c ac16 1dbd
000002b0: 3da6 69bd 2c48 dabd 86d2 9dbd 2e19 a83c
000002c0: c4c3 a1bc af5d 42bc cb8f 5dbc 35f2 25bd
000002d0: 6d04 0abd 7e76 db3c b861 8fbd 9d61 13b9
000002e0: 008c 3c3d c0f2 733c 57a1 1dbd b01b e3bc
000002f0: bf82 e3bb d136 4bbd aab6 23bd 214d 3d3c
00000300: 82d5 1abd 3013 053c fb39 773d afd3 cbbc
00000310: 9939 063d 3b2c 06bd 499a 2c3c 705d f63c
00000320: 9766 213d a7c3 92bc e435 30bd af13 67bd
00000330: 17f0 fcbc 9419 9abd 69e4 87bc eada 353c
00000340: 2b8c 42bd dcb0 9dba 6b82 903c 73a3 f8bc
00000350: f682 603c 7d52 55bd 8908 c73c 139e 12bd
00000360: ac3b 2bbd 48da 3cbd 88a6 61bd 9ed8 0abd
00000370: fd1f 6fbd 8ab4 773d 9f2d 7dbc 465e 88bc
00000380: 66c0 153c 2a5f b0bd 62da a1bd d1fe 7dbd
00000390: 7edc aa3c ac70 92bd 22a8 b53c 528a 6c3c
000003a0: d811 e3ba c15f da3c 6722 5ebd 66d7 d53c
000003b0: f757 93bc fe58 eabd e261 18bc abef b4bd
000003c0: dd27 27bd 4a3b e83c 6f47 1b3c 2ebb fe3c
000003d0: c3b6 5abc 7237 9abd 4be4 3fbd bfcb a83b
000003e0: db9a 36bd 4d70 163c 03fe a5bd 82f2 23bd
000003f0: b845 c73c f147 94bd ba01 1b3b 9795 023d

sequential_2/dense_1/BiasAdd/ReadVariableOp f4 [38]
0.2180593 -0.19942473 0.08873038 0.092282906 -0.1433726 0.1830867 -0.06863167 0.071919456
-0.056803674 -0.009281254 0.114946626 0.06967201 -0.20608751 0.043033868 -0.086001955 0.04192086
-0.19862318 0.05148809 -0.1759455 0.11394598 -0.03807704 0.03941187 -0.025738336 0.13461962
0.01564286 0.20314404 -0.23520766 0.0072858636 0.028723927 0.057846397 0.015000592 0.11270334
-0.26232612 0.008701691 -0.026181674 -0.030143287 -0.07321609 0.09580343
00000000: f04a 5f3e ff35 4cbe 46b8 b53d d2fe bc3d
00000010: 44d0 12be 147b 3b3e c38e 8cbd 824a 933d
00000020: f8aa 68bd 6710 18bc 2369 eb3d 33b0 8e3d
00000030: 9b08 53be 4844 303d cb21 b0bd 35b5 2b3d
00000040: e063 4bbe 2de5 523d 0f2b 34be 835c e93d
00000050: acf6 1bbd 576e 213d 34d9 d2bc bad9 093e
00000060: 7525 803c fe04 503e 47da 70be 41be ee3b
00000070: 714e eb3c 58f0 6c3d 0bc5 753c 02d1 e63d
00000080: 9c4f 86be 8a91 0e3c f37a d6bc 0eef f6bc
00000090: 51f2 95bd 9734 c43d

sequential_2/dense/BiasAdd/ReadVariableOp f4 [64]
0.09475621 -0.01838526 0.184469 -0.032400347 -0.09464589 0.15044847 -0.033507906 -0.01428514
-0.015712997 -0.03226017 0.059944097 -0.0776169 -0.015560184 0.15289369 -0.022211703 -0.34111747
-0.091003425 -0.012612356 -0.023938864 0.04948567 0.04065342 -0.011457834 -0.02847571 -0.20318344
0.0840016 0.055472218 0.019550791 0.16522853 0.28004858 0.02158792 -0.015934149 -0.043380816
0.15444812 -0.006452611 -0.1165586 -0.0076789935 0.005287668 -0.029127156 0.13335305 -0.020143574
-0.14876623 -0.01658457 -0.012164532 -0.020542223 0.07264351 -0.0068607214 0.05351573 -0.017176073
0.030017454 -0.015315777 0.10149543 -0.05808281 0.028376784 -0.07052683 0.029420117 0.24671364
-0.005847364 -0.027165562 -0.04178805 0.16835406 -0.13982017 0.20338622 0.13852035 -0.021942459
00000000: 8b0f c23d af9c 96bc 71e5 3c3e 3ab6 04bd
00000010: b4d5 c1bd 2a0f 1a3e 963f 09bd 380c 6abc
00000020: 8bb8 80bc 3d23 04bd f187 753d 9cf5 9ebd
00000030: 24f0 7ebc 2a90 1c3e 51f5 b5bc f3a6 aebe
00000040: 0160 babd 0ea4 4ebc 701b c4bc 7cb1 4a3d
00000050: 3384 263d a4b9 3bbc e445 e9bc 520f 50be
00000060: 0809 ac3d d636 633d fb28 a03c ab31 293e
00000070: 8762 8f3e 26d9 b03c 5588 82bc 15b0 31bd
00000080: a627 1e3e 6d70 d3bb 46b6 eebd 11a0 fbbb
00000090: 2d44 ad3b 139c eebc b48d 083e 2304 a5bc
000000a0: 2d56 18be 5ddc 87bc bf4d 47bc 2a48 a8bc
000000b0: 1fc6 943d e7cf e0bb 4f33 5b3d d6b4 8cbc
000000c0: 2ae7 f53c 06ef 7abc d6dc cf3d 3ee8 6dbd
000000d0: 6e76 e83c 5f70 90bd 7502 f13c 80a2 7c3e
000000e0: 3f9b bfbb 508a debc f229 2bbd 0265 2c3e
000000f0: 052d 0fbe 7a44 503e 47d8 0d3e acc0 b3bc
